modelo_entrenado.pth (torch, 7394 bytes, 5 tensors)

fc1.weight f4 [32, 19]
00000000: eae3 76be b12b c73d 0cf1 9a3e 8118 503e
00000010: 946e a73c d535 5c3e 27db 723d 5b1e 14be
00000020: 6b94 dcbe dcdd 9ebe fc15 1bbd f654 f73d
00000030: 193f 373b 4c2d 423e 122b b33d 8312 64be
00000040: fddd fbbd feb3 933e 8509 3fbe ba3e 463e
00000050: 21ef 1cbe 303f 98be c23b 2f3c 8438 8bbe
00000060: 20b1 8d3d db05 16be d945 d7bd 4598 f03d
00000070: 3a9a 393e 358c 4f3e e805 16be 1c16 933e
00000080: 190a 823d ed10 46bd be89 b63d da6c 1fbd
00000090: 0ecf 0a3e 75df 6ebe 312d 023e 3a4e 4f3d
000000a0: 2f15 e63d 6819 f3bd f5e6 1a3e c8fb 83bd
000000b0: abb4 e13d f0f3 5bbe 88e6 98be fdf4 ec3d
000000c0: 84f8 813d 3a24 6b3e d602 fbbd 3d85 973d
000000d0: d6cc 6c3e 2c58 20be 2d65 603d 165f 2d3e
000000e0: 7aba a3bd 769d d33d 5613 16bd 0f54 bcbc
000000f0: a587 3fbd f1f0 5cbe 709d 19bd 9276 433e
00000100: f7f2 3e3e c01f 853e f881 09be 9cfb 4ebd
00000110: 8a3c 5bbe eb13 d33d 30d3 e63d ddef f53d
00000120: 0b4d 4a3e 35d7 5b3e d2aa 48be 1205 873d
00000130: 763a 2c3e 76b4 4bbd f13f 113e 49cc 2a3e
00000140: b9d4 853e a5d4 023e c254 1fbe 4419 373e
00000150: a80f ac3e 4123 c3bb 2b51 a43e 391d e93d
00000160: 7004 9abd 230e 7abd 8fd1 823d 353f ac3d
00000170: 6ad4 163d 267a e43c 6443 9ebe 919b a13e
00000180: d81f c1bd 88ca 8f3e 2a15 3ebe 9a1c 2cbe
00000190: 3547 ef3d 0653 803d c726 2d3d 7a96 693e
000001a0: ef1e 413e 3129 d8bd 6a73 1cbe ac74 e9bd
000001b0: 4f06 8abd 8aa6 633e e17e 23be 870c 933e
000001c0: e964 26be 824f 6fbe d5a3 993e fea4 8c3b
000001d0: 3b4b e33d ea07 88bd 47c6 26be 6e6b 563d
000001e0: b1d9 813e 91a5 1b3e 26d3 a9bd cdb5 3abe
000001f0: e730 cd3d d26e a7bd 082d c13d a879 6bbe
00000200: e3e4 47be 65cc 453e c862 b4bd fb87 49be
00000210: eeba 683e 0587 603d 5221 01be b41e 633e
00000220: bd5a 2b3d 6e95 52bd 9fe2 8abe 1662 3abe
00000230: b392 fabd c54e 103e d8f4 51be e54a 693d
00000240: 2193 b93d 074c 56be 51ce ff3c d762 f1bd
00000250: 39c6 3a3e 0a16 483e 1e7a 233d 52bb 86bb
00000260: 813c 3e3e 039a 55bc 6888 223b 6f2a 1b3d
00000270: 432d 393d 444c 223d 812d 2b3e 5488 7e3c
00000280: ea58 e6bd 7031 b5be 92bb f1bd 3387 62bd
00000290: e05c de3d 3a0c c4bd 7195 6e3e 3329 33be
000002a0: 5bf0 28be 34e4 083e 9b5d c33d 42ab 98be
000002b0: 8541 80be 1f5d 93bd cbb7 19be 4103 c13d
000002c0: 64a1 80bd a2bd 0abe 0eaf 373e 4aba a8be
000002d0: 86a8 723e 7a20 0b3e 7a70 103d 17d6 d2bc
000002e0: b2f3 50bd ab47 8a3e 62b2 54be 2df4 8c3e
000002f0: 9d91 273e a170 93be 70dd 53be d87c 4c3d
00000300: fd7d 25be 66dd 343e 0188 93bd c073 2f3e
00000310: b441 6cbd eb6f 86bd 4a0c 4abe e939 82bc
00000320: 58ba a23d 7947 673d 0e3b a53d c705 dfbd
00000330: 2ebc d5bd ba96 0fbd 7ef2 2bbe 0904 90bd
00000340: 4965 b8bd 1936 5bbc bea2 613e 6260 c33b
00000350: 0dce 3cbe c407 6abd 2afe 67be 2d82 033e
00000360: cbd5 09be 4564 e13c 7e8d 373e e06e c73d
00000370: 8bfd 71bd 31cb 1e3e 8e02 553e 54a6 d1bd
00000380: 1965 43bb 8236 6d3e 2409 143e 0930 45be
00000390: bceb 193e 75b2 57be 466f 87bd bd1c 5b3e
000003a0: 4b5b 533c 7a10 e43d f097 dd3c c977 893e
000003b0: 7e10 bcbd 65c2 713e fd3b acbd 68fc 4cbd
000003c0: 2891 953e f49d 793e dde4 b53e f748 46be
000003d0: b37f f43d 719b 84bd ca2c 78be b522 e83d
000003e0: b0d8 a7bd 2a1f 02be 8849 513d b085 4dbe
000003f0: f6d5 673e ce5d 6a3e b1ff 6c3e 9ff8 f53a
-0.2411038 0.0972513 0.3026203 0.20321847 0.02043847 0.2150491 0.05929103 -0.14464705
-0.43081984 -0.3102864 -0.037862763 0.12076752 0.0027961193 0.18962592 0.087484494 -0.22272687
-0.122982 0.2884826 -0.18655975 0.19359866 -0.15325595 -0.29735708 0.0106954 -0.27191556
0.069185495 -0.14650671 -0.10511369 0.11747793 0.18125239 0.20268328 -0.1465069 0.28727806
0.06349582 -0.048355985 0.08912991 -0.03892217 0.13555548 -0.2332743 0.12712552 0.050611712
0.11234509 -0.1187008 0.15127166 -0.06444508 0.11020788 -0.21479774 -0.2986338 0.11570165
0.06346229 0.22963038 -0.122564 0.0739846 0.23125014 -0.15658635 0.05478399 0.16930804
-0.07994552 0.10332768 -0.036639534 -0.022989301 -0.04676022 -0.21576287 -0.03750366 0.190882
0.18647371 0.26000786 -0.13428485 -0.050532922 -0.21409813 0.103065334 0.112707496 0.12008641
0.19755952 0.21468814 -0.19596413 0.06592764 0.16819176 -0.049732648 0.14184548 0.16679491
0.26138857 0.1277643 -0.15559676 0.17880732 0.33605695 -0.0059551303 0.32093176 0.11382527
-0.07520378 -0.061048638 0.063876264 0.08410493 0.036823668 0.027890276 -0.3091079 0.31564
-0.09429902 0.28084207 -0.18562761 -0.16807786 0.116835035 0.062658355 0.04227331 0.22811309
0.18859456 -0.10554732 -0.15278402 -0.113992065 -0.067394845 0.22231498 -0.15966369 0.28720495
-0.16249432 -0.23370174 0.30007806 0.0042921295 0.110983334 -0.066421345 -0.16286574 0.052348547
0.25361398 0.15199877 -0.082922265 -0.18233414 0.10019093 -0.08175434 0.09432417 -0.22995627
-0.19520907 0.19316252 -0.088079035 -0.19680779 0.22727558 0.054816265 -0.12610367 0.22179681
0.04183458 -0.05141204 -0.27126023 -0.1820148 -0.12235012 0.14092548 -0.20503557 0.05695619
0.09061266 -0.2092744 0.031226309 -0.1178643 0.18239678 0.19539657 0.039911382 -0.004111686
0.18577768 -0.013037208 0.0024800543 0.037882265 0.04520918 0.039623514 0.16716577 0.015535433
-0.11247428 -0.3538928 -0.11803354 -0.055304717 0.10857558 -0.095726445 0.23299195 -0.17496185
-0.16497938 0.13368303 0.09539338 -0.2981816 -0.25049987 -0.07195496 -0.15011518 0.09424449
-0.06280783 -0.13548902 0.17937872 -0.32954627 0.23697099 0.13586608 0.035263516 -0.025736852
-0.051013656 0.27007803 -0.20771173 0.2753004 0.16364141 -0.28796867 -0.2068994 0.049923748
-0.16161342 0.17662582 -0.07203675 0.17133999 -0.057679847 -0.065643154 -0.1973125 -0.015896754
0.079456985 0.056464646 0.080679044 -0.10889774 -0.10436283 -0.035055853 -0.16791722 -0.0703202
-0.090036936 -0.013379597 0.22034737 0.0059624175 -0.18437977 -0.057136312 -0.2265555 0.12842627
-0.13460462 0.027513633 0.17925069 0.097379446 -0.059079688 0.15507199 0.20801756 -0.10236803
-0.0029814898 0.23165324 0.14456612 -0.19256605 0.15031332 -0.2106417 -0.066130206 0.21397682
0.012900184 0.11135955 0.027049989 0.268492 -0.09182833 0.23609312 -0.08409879 -0.0500454
0.29212308 0.2437666 0.3552617 -0.19363771 0.11938419 -0.064749606 -0.24235836 0.11334745
-0.08195627 -0.127072 0.051095515 -0.20070529 0.22640213 0.22887346 0.23144414 0.0018766111

fc1.bias f4 [32]
00000000: 6e54 2c3e f235 f9bb f076 cc3d 3afb 8f3e
00000010: 50df 573e 0a07 503e b293 a03e cd50 703e
00000020: 00bd 013d d426 cf3e 6e6f 55be 6334 de3e
00000030: a066 b13e 80f2 5fbc b137 273e 8b8a 25be
00000040: f57d 8e3e d0f6 ab3e 7ce3 1f3e 9e97 8f3d
00000050: 548b 9f3d bb32 883e 4880 883e 0303 3a3e
00000060: db24 093d 26f2 3d3e 94ef 963e 4a97 6f3e
00000070: 6505 bcbc dfe4 873d 0b94 c43e 1e03 9ebd
0.16829082 -0.0076053077 0.09983623 0.28121358 0.2108128 0.20315185 0.31362683 0.23468323
0.031674385 0.4045931 -0.20843288 0.43399343 0.3464861 -0.013668656 0.16329838 -0.16166131
0.27830473 0.3358674 0.15614122 0.070113406 0.077902466 0.26601204 0.2666037 0.18165211
0.033482414 0.18549404 0.2947966 0.23397556 -0.022951791 0.066354506 0.38394198 -0.07715438

fc2.weight f4 [16, 32]
00000000: 3748 2f3e 1feb 1a3e a38c 9b3c f56b 043e
00000010: fd51 58bc 7350 d0bc 642c 96bd f8c9 a139
00000020: 4fb6 82bd 93cf 25be 446e 21be 4199 443d
00000030: bfba 7fbc 7730 283e 7042 553e f671 51bc
00000040: 1066 0cbe ef7c 193e 5ae0 87bb 9ce8 303e
00000050: d645 36be def6 f7bd 5d7b 333e 3783 63be
00000060: 3808 ebbd 0d77 a63a 9f7c b9bd 9201 7e3e
00000070: 672b 87bd 9cbc b7bd f1e0 033e 769b bf3d
00000080: 1325 c73d e1b2 483e 3bc4 d53d 2618 853d
00000090: b883 8f3e 88fa cc3d e5ea 633e e2c9 5d3d
000000a0: 879c c53d ccd4 bb3c 2ed9 19bc 7b41 483d
000000b0: 9c24 973e 3da9 f03d 28fd 053e f796 773d
000000c0: 6b87 6b3d aac1 5a3e 8500 583c a3a3 013e
000000d0: f926 673d f775 2e3e 7487 783e 118e 853e
000000e0: e9ba 983e 9b06 b43d 53dd 993e a185 803e
000000f0: b313 88bc d238 993e 79ec 863e 75f7 273d
00000100: b947 573d 3534 1cbe 2f16 843e 8bbe 6e3e
00000110: 1d46 b3bd 2ae8 843e dfb8 df3d f195 1a3e
00000120: 6102 903d 11c4 943e f74f c33e d1aa 883e
00000130: 0070 57bd be6a 06be 8131 fc3c e82c 41be
00000140: 4fa0 843d ebfa 8bbc 4edd c83e 4e81 16be
00000150: 8cf7 623e a430 613c 1327 933e 0f0c 35bd
00000160: 6e0c f23d cc15 793e 30ef d13d 37d3 e73d
00000170: 9573 8a3e 5ea1 01be fe02 383e c954 913d
00000180: 6668 a13d 19a1 2d3d 723c d8bc 2114 3dbe
00000190: d3fb 25be a6b9 113e 9a6c 45be 9519 37bd
000001a0: 46bb afbd 68c7 26bd 0a85 5a3d 0bab f7bd
000001b0: 440f c03d f1a7 7cbd 53db 2bbe f671 b9bd
000001c0: 5eb2 61bd 9c74 573d 3221 01be 0a11 03be
000001d0: 8736 19be 9104 773d 6d54 43be a45c 15be
000001e0: df3b 38bd b87a 163e 3730 a33d 1c92 e63d
000001f0: 0f11 ffbd 5a8f 1abd 6729 283d 3b7b 1bbe
00000200: fdce 903d 3638 e93d 8d0d 33be 12eb 47be
00000210: d633 20be 55ea c03c e630 2cbe f654 493d
00000220: 4c12 023e 872a 3dbd 543a c23d d32b 0a3d
00000230: de32 aa3d 3de3 38be 2b81 e8bd 318f 8e3d
00000240: bb54 9cbd 45c0 d13c 92c2 72bd b250 33be
00000250: 8408 b63d e249 14be e7ab 3bbd 2bad 7f3d
00000260: 0b96 ec3d c5ba e2bd 6c4c 46be 53af e3bd
00000270: dec3 d1bd 6088 fb3d 476c 923d 81cb 08bd
00000280: 5bd6 783c 1f07 14be 52a3 11bc 19b9 1abe
00000290: 02eb 72bd eda5 c53d 6f00 abbb 64e4 f03d
000002a0: da25 da3d 08fc 10be b2b7 84bc cd52 f43c
000002b0: da91 a13d ba81 a9bb 1f69 21be db0a ee3d
000002c0: 1987 a5bd ebc5 293d 2e93 f9bd 816a 2a3d
000002d0: 5c21 c7bd 24f4 c33d 4db2 f4bc 2110 33bd
000002e0: 6e0f ddbd 435c 79bd 72e9 c0bd da0d 1ebe
000002f0: 4262 1fbe b236 4d3d 52eb 26be e82c aebd
00000300: ed5d 053e 84ad 05be e6eb 353b bbb2 7ebd
00000310: aadf ec3d e6c4 4fbe 5a0f c8bd 063a ef3d
00000320: f467 cc3d 4149 ffbd 5dd5 1bbe a61f c7bd
00000330: 8939 37be 0c0e 2bbe fef6 fabd 817f 813b
00000340: 196e 94bd 50d8 4bbe 0a56 b13d b26f e63d
00000350: 162b dbbc 3e6b 01be b801 10bc ed32 60be
00000360: 7abc 51be 500c d33d d401 053e b3ef 11be
00000370: c536 94bb 6d22 dcbb c3d7 4fbe 563a b13d
00000380: 18c7 533e 7a07 3d3e a309 4f3e d7ea 383e
00000390: e3aa 4b3e e226 713d 5a6a 0c3e 332e 813c
000003a0: 2481 7e3e b989 693e 446a e63d 6095 693e
000003b0: e5da 0e3e 8438 4e3e 1574 193e a7a6 203e
000003c0: 7933 923e a67c 0b3d 0e04 083c 5cd0 9b3d
000003d0: 5a03 753e 3076 8b3d ae17 9f3e 0e55 cc3c
000003e0: 0566 de3d a233 e23d 26c5 8c3e 5804 073e
000003f0: 7ff1 063e 1d12 d13d 0e04 833e 1fa4 953e
0.17117392 0.15128754 0.01898796 0.12931807 -0.013203141 -0.025428986 -0.073326856 0.0003085879
-0.06382429 -0.16192465 -0.15764719 0.047997717 -0.015608489 0.16424738 0.20826125 -0.012783518
-0.13710809 0.14989065 -0.004146618 0.17276233 -0.17800078 -0.12107633 0.17527528 -0.22218023
-0.11476177 0.0012700275 -0.09056973 0.24805287 -0.06600075 -0.08971521 0.12878777 0.09355824
0.09723868 0.19599487 0.104378186 0.064987466 0.2803018 0.100087225 0.22257574 0.05414761
0.09648996 0.022928618 -0.009390159 0.048890572 0.29520118 0.1175103 0.13084853 0.060446706
0.05750219 0.2136294 0.013183718 0.12660079 0.05643365 0.17037188 0.24270421 0.2608495
0.298301 0.087903224 0.3005167 0.2510195 -0.016610956 0.29926163 0.2635229 0.041007478
0.052558634 -0.1525429 0.25798175 0.23314874 -0.087536074 0.25958377 0.10923933 0.1509626
0.07031704 0.29055837 0.38146946 0.26692823 -0.052597046 -0.13126656 0.030785324 -0.18864787
0.06475889 -0.01708742 0.39231342 -0.14697763 0.22164744 0.013744507 0.2874075 -0.044200953
0.11818777 0.24324721 0.102506995 0.11319583 0.27041307 -0.12659213 0.17969891 0.070962496
0.078812405 0.042389963 -0.02639601 -0.1846471 -0.16209345 0.14230976 -0.1927971 -0.04470213
-0.085806414 -0.040717512 0.053349532 -0.12093171 0.09377912 -0.0616836 -0.16782884 -0.090549394
-0.055101745 0.05260144 -0.1261032 -0.12799469 -0.14962207 0.06030709 -0.19075175 -0.14586121
-0.044978973 0.14695251 0.079681806 0.11258337 -0.124544255 -0.037734367 0.04105511 -0.15183727
0.0707073 0.113876745 -0.17485638 -0.19523266 -0.15644774 0.023549238 -0.16815528 0.04915329
0.12702292 -0.046183135 0.094837815 0.0337332 0.083104834 -0.18055435 -0.11352762 0.06960905
-0.076333486 0.025604377 -0.059267588 -0.17511252 0.08888343 -0.14481309 -0.045818236 0.062421005
0.11552056 -0.1107078 -0.1936509 -0.11117425 -0.10242437 0.12281871 0.071495585 -0.0333972
0.015187825 -0.14455841 -0.008889036 -0.15109672 -0.059306152 0.096507885 -0.0052185575 0.11762312
0.10651751 -0.14158642 -0.016200874 0.029824639 0.07889147 -0.0051729353 -0.15762757 0.11623164
-0.080824085 0.041448515 -0.121862754 0.041605476 -0.0972316 0.095680505 -0.029870177 -0.043716554
-0.107939586 -0.060879003 -0.09419526 -0.15434971 -0.15564826 0.05010099 -0.16300705 -0.08504659
0.13024111 -0.13054472 0.0027759015 -0.06218217 0.11566098 -0.20289955 -0.09768553 0.11680989
0.09980765 -0.12465144 -0.1521811 -0.09722833 -0.17893042 -0.16704577 -0.12254141 0.003951967
-0.07247562 -0.19906735 0.08658989 0.11251773 -0.026753943 -0.12638566 -0.008789472 -0.21894427
-0.20482054 0.10305083 0.12988979 -0.14251594 -0.0045231306 -0.006717971 -0.2029715 0.08653705
0.20681417 0.18459883 0.2021852 0.18058334 0.19889407 0.058874972 0.13712445 0.0157691
0.2485395 0.22806443 0.11250737 0.22810888 0.13950689 0.20138747 0.14985688 0.15688573
0.28554896 0.03405442 0.008301748 0.07608101 0.2392706 0.06809652 0.31072754 0.024942901
0.108593024 0.110450044 0.27494162 0.13185251 0.13178061 0.10208533 0.2558903 0.29226777

fc2.bias f4 [16]
00000000: a44f 30be d69c a3bc 2b55 083e 4f1c ed3c
00000010: ac4c 253d b206 0cbe b603 d23d cf74 d93c
00000020: b240 d2bd 5dea d1bd 5bba cabd ba25 dc3c
00000030: e90d 52bd 45e0 073e 4614 b6bd 9ef0 0ebe
-0.1721788 -0.019972246 0.13313739 0.028944163 0.040356323 -0.13674429 0.10254614 0.026544956
-0.10266246 -0.102497794 -0.09898826 0.026873458 -0.051282797 0.13269146 -0.088905856 -0.13958976

fc3.weight f4 [1, 16]
00000000: fe80 b1be 771c a23e cf6d 703e add6 5dbd
00000010: a13f 42be 20fe b8bd 06a0 afbc bd65 3a3e
00000020: 9087 b3be 5321 5ebe c1b4 05be 628a f7bc
00000030: 7781 1ebe 5ac7 b43e 8661 9abe 6d32 ffbd
-0.34668726 0.31662342 0.23479389 -0.05415981 -0.18969585 -0.090328455 -0.02143861 0.18202873
-0.35064363 -0.216924 -0.13057233 -0.030217353 -0.15479074 0.35308343 -0.3015253 -0.1246079
